Scanpro1/DetectComponent/TFModel/hed_mobile.tflite (tflite, 250300 bytes, 49 tensors)

conv2d_1/kernel f4 [1, 1, 1, 16]
0	0x3ff3cd3e	1.904701
1	0xbdde84e8	-0.108651936
2	0xbe22b646	-0.15889844
3	0x3e4fe3bf	0.20301722
4	0xbe9709a9	-0.29499558
5	0xbe78680c	-0.2425844
6	0x3dc6011b	0.096681796
7	0xbe736e2c	-0.23772496
8	0xbdb3ba05	-0.08775715
9	0xbe06e277	-0.13172327
10	0x3e7ab6a0	0.24483728
11	0xbd592d3f	-0.053021666
12	0x3eeba230	0.46022177
13	0xbf365b86	-0.71233404
14	0x3e4df74b	0.20113866
15	0x3f720692	0.94541276

conv2d_2/kernel f4 [1, 1, 1, 32]
0	0xbf3385bf	-0.70125955
1	0xbf3bd17f	-0.7336654
2	0x3e0dbb3a	0.13840953
3	0x3df3fcf8	0.11913484
4	0x3e4f67b8	0.2025441
5	0x3ea9664d	0.33085862
6	0xbf3c0af5	-0.7345422
7	0x3da6572d	0.08122096
8	0x3ed10969	0.40827492
9	0x3f5b4cf4	0.85664296
10	0xbf722529	-0.9458795
11	0x3ed1bec0	0.40965843
12	0x3e225f6a	0.1585671
13	0x3dfdd52c	0.12394175
14	0xbf8dc694	-1.1076226
15	0x3c4153a9	0.011799731
16	0x3e3f2f6d	0.18670435
17	0xbf2273e0	-0.6345806
18	0xbf3e79f7	-0.74404854
19	0x3ea967ca	0.33086997
20	0x3ef87f2b	0.4853452
21	0x3e530e8d	0.2061102
22	0x3e9b43cd	0.30325165
23	0xbf524ff5	-0.82153255
24	0x3e8684b0	0.26273108
25	0x3f17566b	0.5911624
26	0xbf0dc3e0	-0.55377007
27	0x3ea8ccc3	0.3296872
28	0xbe07f97c	-0.13278764
29	0xbead2acd	-0.33821717
30	0x3dcec0c8	0.10095364
31	0xbf3e13a6	-0.7424873

conv2d_3/kernel f4 [1, 1, 1, 64]
0	0x3cccf7dc	0.025020532
1	0x3d24c53a	0.040227152
2	0xbf7d084b	-0.9884078
3	0x3f3419b6	0.7035173
4	0x3f859d7e	1.0438688
5	0xbd71f75f	-0.059073802
6	0x3deba365	0.115057744
7	0x3f31c9ab	0.69448346
8	0x3ee6d2d4	0.45082724
9	0x3f00f4f0	0.50373745
10	0xbdd8062b	-0.105480514
11	0xbf172c1c	-0.5905168
12	0xbe76dfa5	-0.24108751
13	0x3e62c256	0.22144446
14	0x3f31cb96	0.6945127
15	0xbd722690	-0.059118807
16	0x3ec47194	0.38367903
17	0x3edb163a	0.42790395
18	0x3e1fe732	0.15615538
19	0xbf815019	-1.0102569
20	0x3c796e35	0.015224029
21	0xbf2e8dca	-0.681851
22	0x3ea4382c	0.32074106
23	0xbe94c310	-0.2905507
24	0x3ee34d9a	0.44395143
25	0xbf584235	-0.84476024
26	0x3db8a7c8	0.09016377
27	0xbdd816af	-0.105512016
28	0x3de54795	0.11195294
29	0xbf812d25	-1.0091902
30	0xbf5496d6	-0.8304266
31	0x3f136205	0.5757144
32	0x3ec5d60e	0.38639873
33	0x3eb5661f	0.35429475
34	0xbe12da46	-0.14341077
35	0x3f1d5e71	0.6147223
36	0x3eba273d	0.3635806
37	0xbda4f007	-0.08053594
38	0xbe40a678	-0.18813503
39	0x3e11d057	0.14239632
40	0xbf6f681b	-0.9351823
41	0x3f0be989	0.5465322
42	0xbef9247b	-0.48660645
43	0x3ed090b3	0.40735397
44	0xbe2217cb	-0.15829389
45	0xbe39abe6	-0.1813198
46	0x3e93d272	0.28871495
47	0xbea81aac	-0.3283285
48	0x3f0d836d	0.55278665
49	0x3f0328c7	0.51234096
50	0xbf16ac17	-0.5885634
51	0x3e7796ef	0.2417867
52	0xbde2a8ec	-0.110673755
53	0x3f032d41	0.51240927
54	0x3ea84d92	0.3287168
55	0x3e9447d8	0.28961062
56	0xbe58d65a	-0.21175519
57	0x3d152f27	0.03642192
58	0xbf1a68ad	-0.6031597
59	0xbe71c5a4	-0.2361055
60	0xbf2dd316	-0.67900217
61	0x3f048beb	0.51776
62	0x3f16eadd	0.5895212
63	0xbe4d2b82	-0.20036128

conv2d_4/kernel f4 [1, 1, 1, 128]
0	0x3e2bf425	0.16792352
1	0xbdfa5529	-0.12223274
2	0xbdd73d02	-0.10509683
3	0x3eb95c67	0.3620331
4	0xbf67f1c3	-0.90603274
5	0xbe73d35b	-0.23811094
6	0xbe541285	-0.2071019
7	0xbe73d4dc	-0.23811668
8	0x3ddd84e8	0.108163655
9	0x3ed43276	0.4144475
10	0x3da9045f	0.08252787
11	0x3e4998be	0.19687173
12	0x3eac17c1	0.33611873
13	0x3e8d84cf	0.27640387
14	0xbdbc4b2f	-0.09194028
15	0xbd03ab38	-0.03214571
16	0x3e655e78	0.22399318
17	0x3eb6a1ce	0.35670322
18	0x3ee08ccb	0.43857417
19	0xbeee607a	-0.4655798
20	0xbe01952e	-0.12654564
21	0xbea1a2c5	-0.31569496
22	0xbeddef0e	-0.43346447
23	0x3e4e305d	0.20135637
24	0xbe8fac4b	-0.28061137
25	0x3f66b056	0.9011282
26	0x3e846ee5	0.25865856
27	0x3f0d596c	0.5521457
28	0x3eba11e5	0.36341777
29	0x3e1d96d2	0.15389565
30	0x3ef52a63	0.478839
31	0x3e92bcf2	0.2865978
32	0xbf36ffb0	-0.714839
33	0x3dc4e310	0.09613621
34	0x3f11659c	0.5679567
35	0x3ef96074	0.487064
36	0xbf365229	-0.71219116
37	0xbef7b570	-0.48380613
38	0x3c8a9f10	0.01692155
39	0xbef560de	-0.47925466
40	0x3e1008cf	0.1406586
41	0xbe790be6	-0.24320945
42	0x3e5f44d8	0.21803606
43	0x3e5f0a4c	0.21781272
44	0xbc976dbb	-0.01848494
45	0xbedeb2d3	-0.43495807
46	0x3e78fdc0	0.24315548
47	0xbe03091d	-0.12796445
48	0x3ed137de	0.40862936
49	0x3e60ed64	0.21965557
50	0x3eb82f93	0.35973796
51	0xbf44ae75	-0.768287
52	0x3c30d087	0.010791904
53	0x3ee101c1	0.4394665
54	0xbf24e6a3	-0.64414424
55	0x3d4adcd6	0.04952701
56	0xbe85c8a6	-0.26129645
57	0xbdcb2e71	-0.09920967
58	0xbe99a802	-0.30010992
59	0xbf009f5f	-0.5024318
60	0x3f145558	0.57942724
61	0x3e9a5284	0.3014108
62	0xbf0000b7	-0.5000109
63	0xbf466bd0	-0.7750826
64	0xbf059a93	-0.52188987
65	0x3e81f902	0.2538529
66	0xbda188c2	-0.078874126
67	0x3eaa2124	0.3322841
68	0x3eadcded	0.3394617
69	0x3f23b182	0.6394273
70	0x3ecbf080	0.39831924
71	0xbf26417f	-0.6494369
72	0xbe5c3cf0	-0.21507621
73	0xbe92401d	-0.2856454
74	0x3ebeac74	0.37240946
75	0x3ea67e00	0.32518005
76	0x3ec6f47f	0.3885841
77	0xbf7fa289	-0.99857384
78	0xbdda7bc2	-0.10668136
79	0xbeffde2c	-0.4997419
80	0xbe3f8b9b	-0.18705599
81	0x3eb1e576	0.34745377
82	0xbe1d8a91	-0.1538489
83	0xbe87abbf	-0.2649822
84	0x3f1d3fa1	0.61425215
85	0xbb83ccee	-0.0040222323
86	0xbf0d8e27	-0.5529503
87	0xbd70fe80	-0.05883646
88	0xbe2d879b	-0.1694626
89	0x3f1c468b	0.6104514
90	0x3e1e3f4a	0.1545383
91	0x3ece4fd0	0.40295267
92	0x3e53e9bf	0.20694636
93	0x3e2295e6	0.15877494
94	0x3e5724c5	0.2101012
95	0xbe809fb3	-0.2512184
96	0x3d67e85a	0.056618072
97	0x3eba71b1	0.36414865
98	0xbe502d6e	-0.2032983
99	0x3edf0860	0.43561077
100	0x3edccd2c	0.43125284
101	0x3e8a612b	0.27027258
102	0x3eb0ae76	0.34508103
103	0x3c7b4b42	0.015337767
104	0xbf376bec	-0.7164905
105	0xbd84abed	-0.06478105
106	0x3f2f5b5d	0.68498784
107	0x3eade31c	0.33962333
108	0xbf03cdb4	-0.51485753
109	0xbeaafa19	-0.33393934
110	0x3e97ab87	0.29623052
111	0xbf1ecac5	-0.6202815
112	0x3e0f7ccf	0.14012454
113	0xbedc48fa	-0.43024427
114	0x3ea6f4e1	0.32608703
115	0x3e7a1f51	0.24426009
116	0x3e598257	0.21241127
117	0xbeceaee9	-0.4036782
118	0xbe32fe76	-0.17479882
119	0x3eaa2b68	0.3323624
120	0x3ed746da	0.42046243
121	0xbee04755	-0.43804422
122	0xbe2d0a5f	-0.16898488
123	0x3d1d3e1f	0.03838932
124	0x3e68fac0	0.22751904
125	0x3e9ed64e	0.31022877
126	0x3e79c30c	0.2439081
127	0xbe235c39	-0.15953149

conv2d_5/kernel f4 [1, 1, 1, 4]
0	0x3e3adbcb	0.18247907
1	0x3e315e83	0.1732121
2	0x3e734e34	0.23760301
3	0x3f236e01	0.6383973

conv2d_transpose_1/kernel/read_transposed f4 [1, 2, 2, 1]
0	0xbf38c459	-0.721746
1	0xbeb0d74e	-0.34539264
2	0xbeb83d23	-0.35984144
3	0xbe591a31	-0.21201397

conv2d_transpose_2/kernel/read_transposed f4 [1, 4, 4, 1]
0	0x3de530d2	0.11190952
1	0x3e968e8d	0.29405633
2	0x3e99a3e4	0.3000785
3	0x3df50b2c	0.119650215
4	0x3ea5a7e4	0.32354653
5	0x3f1c25d0	0.609952
6	0x3f195717	0.59898514
7	0x3ea09aa9	0.31367996
8	0x3eab4e28	0.33458066
9	0x3f246603	0.6421816
10	0x3f28d784	0.6595385
11	0x3eb4eb10	0.35335588
12	0x3e04f1eb	0.1298291
13	0x3eabde1f	0.33567902
14	0x3ebdd5aa	0.37077075
15	0x3e2b7f7a	0.16747847

conv2d_transpose_3/kernel/read_transposed f4 [1, 8, 8, 1]
0	0xbd5d11b1	-0.05397195
1	0xbdae4ba0	-0.08510518
2	0xbdea41d9	-0.11438341
3	0xbe0153be	-0.12629601
4	0xbe049aa8	-0.12949622
5	0xbe003581	-0.1252041
6	0xbdca9e9f	-0.09893536
7	0xbd6eba82	-0.058283336
8	0xbdac75fe	-0.08420943
9	0xbe102300	-0.14075851
10	0xbe4b859f	-0.19875191
11	0xbe6f7f04	-0.23388296
12	0xbe7b318a	-0.24530616
13	0xbe604400	-0.2190094
14	0xbe288831	-0.16458203
15	0xbdc74f53	-0.09731927
16	0xbddcba50	-0.10777724
17	0xbe461ede	-0.19347712
18	0xbe90e65f	-0.2830076
19	0xbeb15bb6	-0.34640282
20	0xbebb0250	-0.36525202
21	0xbea013b5	-0.31265035
22	0xbe68b6db	-0.22726004
23	0xbe040600	-0.12892914
24	0xbde4c19c	-0.111697406
25	0xbe61cd09	-0.22050871
26	0xbeac857d	-0.33695593
27	0xbed57b9f	-0.41695878
28	0xbeddde27	-0.4333355
29	0xbebad799	-0.36492613
30	0xbe8113ca	-0.2521041
31	0xbe055e72	-0.1302431
32	0xbdec4d3e	-0.1153817
33	0xbe6a2849	-0.2286693
34	0xbeb0b194	-0.3451048
35	0xbed721d9	-0.4201801
36	0xbed95b2f	-0.4245238
37	0xbeb49d77	-0.35276386
38	0xbe765173	-0.24054508
39	0xbdfc5c83	-0.12322333
40	0xbde30dd4	-0.11086622
41	0xbe4f916f	-0.20270322
42	0xbe957a35	-0.291948
43	0xbeb31d3e	-0.34983248
44	0xbeb24239	-0.3481615
45	0xbe9532f7	-0.29140446
46	0xbe53331b	-0.20624964
47	0xbde78471	-0.11304558
48	0xbdb3d30c	-0.08780488
49	0xbe19c78f	-0.15017532
50	0xbe552af7	-0.20817171
51	0xbe722636	-0.23647389
52	0xbe69ddaf	-0.22838472
53	0xbe4b004b	-0.1982433
54	0xbe13c957	-0.14432274
55	0xbda8947b	-0.082314454
56	0xbd6bea99	-0.057596777
57	0xbdc137f7	-0.094345026
58	0xbdfc5663	-0.123211645
59	0xbe021790	-0.12704301
60	0xbdf55725	-0.11979512
61	0xbde6b166	-0.11264305
62	0xbdb0032f	-0.08594357
63	0xbd50405b	-0.050842624

conv2d_transpose_4/kernel/read_transposed f4 [1, 16, 16, 1]
0	0xbca9dd9c	-0.020735554
1	0xbce016a7	-0.027354551
2	0xbd13246f	-0.035923418
3	0xbd4abe23	-0.049497735
4	0xbd8604c4	-0.06543878
5	0xbd8eaebe	-0.06966923
6	0xbd8adf25	-0.06780843
7	0xbd82a887	-0.063798
8	0xbd83bf68	-0.06432992
9	0xbd8ad8db	-0.06779643
10	0xbd8f8a92	-0.07008852
11	0xbd8b19cd	-0.067920305
12	0xbd5205ef	-0.05127519
13	0xbd18051e	-0.037114255
14	0xbcf82c8b	-0.030294677
15	0xbcc65523	-0.024210518
16	0xbce40a57	-0.027836962
17	0xbd1a16ce	-0.037619404
18	0xbd4dced5	-0.05024608
19	0xbd8ec85e	-0.06971811
20	0xbdbae6b0	-0.091260314
21	0xbdc4b051	-0.09603942
22	0xbdbfc3aa	-0.09363492
23	0xbdb77a2d	-0.0895885
24	0xbdbc528a	-0.091954306
25	0xbdc3a480	-0.0955286
26	0xbdc6a096	-0.09698598
27	0xbdc18410	-0.09449017
28	0xbd96cb19	-0.073629566
29	0xbd5b3e0a	-0.053525962
30	0xbd2cf637	-0.042226996
31	0xbd05a4e8	-0.03262797
32	0xbd058947	-0.03260162
33	0xbd3bf461	-0.045887355
34	0xbd75aa51	-0.05997688
35	0xbdabceac	-0.08389029
36	0xbde3ca5c	-0.11122581
37	0xbdf25e4e	-0.118343934
38	0xbdebc734	-0.11512604
39	0xbde686e3	-0.11256196
40	0xbdea08f6	-0.114274904
41	0xbdf20c40	-0.11818743
42	0xbdf448e7	-0.119279675
43	0xbde73b11	-0.11290563
44	0xbdb60186	-0.08887009
45	0xbd824f72	-0.06362809
46	0xbd463973	-0.04839463
47	0xbd158c6a	-0.036510862
48	0xbd27af4d	-0.040938664
49	0xbd6d4475	-0.057926614
50	0xbd9b9629	-0.07597
51	0xbdda47a6	-0.10658197
52	0xbe118579	-0.14211072
53	0xbe2009aa	-0.15628687
54	0xbe210d16	-0.15727648
55	0xbe213983	-0.15744595
56	0xbe21e4c5	-0.15809925
57	0xbe21ab47	-0.15787993
58	0xbe1d6769	-0.15371479
59	0xbe118cc8	-0.1421386
60	0xbde38a08	-0.11110312
61	0xbda32991	-0.079669125
62	0xbd79d00e	-0.060989432
63	0xbd329611	-0.043600146
64	0xbd53e08a	-0.05172781
65	0xbd9aa3f3	-0.07550802
66	0xbdd04c45	-0.10170797
67	0xbe114f81	-0.14190485
68	0xbe3d5e3c	-0.18492979
69	0xbe524bde	-0.20536754
70	0xbe58a2e1	-0.21155883
71	0xbe5b46d1	-0.21413733
72	0xbe5d6d0e	-0.21623632
73	0xbe5bbf8c	-0.21459788
74	0xbe53dc7b	-0.20689575
75	0xbe43704b	-0.19085805
76	0xbe1846e5	-0.14870794
77	0xbde0893f	-0.109636776
78	0xbdad3b3f	-0.08458566
79	0xbd75ac61	-0.059978846
80	0xbd77fc47	-0.060543325
81	0xbdae7176	-0.08517735
82	0xbdea9c45	-0.11455587
83	0xbe223392	-0.15839985
84	0xbe544e29	-0.2073294
85	0xbe6c5bae	-0.23081848
86	0xbe7766d8	-0.24160326
87	0xbe7bf428	-0.24604857
88	0xbe7fdebd	-0.24987312
89	0xbe7bf295	-0.24604256
90	0xbe732539	-0.23744668
91	0xbe5dc31f	-0.21656464
92	0xbe2ad065	-0.16681059
93	0xbdfb7f51	-0.12280143
94	0xbdc468d0	-0.09590304
95	0xbd8f12cb	-0.06986006
96	0xbd7ee0f2	-0.062226243
97	0xbdb44314	-0.08801857
98	0xbdebd937	-0.1151604
99	0xbe24a992	-0.16080311
100	0xbe5ea726	-0.2174345
101	0xbe792ecf	-0.24334262
102	0xbe8129b9	-0.25227144
103	0xbe83afbb	-0.2572001
104	0xbe84c65c	-0.25932586
105	0xbe823262	-0.25429064
106	0xbe7b4eee	-0.24541828
107	0xbe65ba78	-0.22434413
108	0xbe2da8d4	-0.16958934
109	0xbdfc18db	-0.12309428
110	0xbdc3c1cc	-0.09558448
111	0xbd8cdfa3	-0.06878593
112	0xbd73cf08	-0.059523612
113	0xbdb09446	-0.08622031
114	0xbdeb185b	-0.11479255
115	0xbe24af9d	-0.16082616
116	0xbe619a4b	-0.22031514
117	0xbe7d6dac	-0.24748868
118	0xbe82eb89	-0.25570324
119	0xbe8561af	-0.2605109
120	0xbe85d55a	-0.26139337
121	0xbe84005d	-0.25781527
122	0xbe7fe515	-0.24989732
123	0xbe684841	-0.22683813
124	0xbe2c09bc	-0.16800588
125	0xbdf31d30	-0.118708014
126	0xbdba0fb0	-0.090850234
127	0xbd84658f	-0.06464683
128	0xbd6a47f4	-0.057197526
129	0xbdab21fe	-0.08356093
130	0xbde80bb4	-0.11330357
131	0xbe241e19	-0.16027106
132	0xbe5dd669	-0.21663822
133	0xbe776661	-0.24160148
134	0xbe7fd738	-0.24984443
135	0xbe82cfcb	-0.25549158
136	0xbe846455	-0.25857797
137	0xbe81ad33	-0.25327453
138	0xbe7bfa86	-0.24607286
139	0xbe667f31	-0.22509457
140	0xbe2b5c01	-0.16734315
141	0xbdf6992c	-0.12040934
142	0xbdbd8aa3	-0.092549585
143	0xbd869cdd	-0.06572888
144	0xbd712f00	-0.058882713
145	0xbdacf955	-0.08445994
146	0xbde781b3	-0.11304035
147	0xbe23242f	-0.15931772
148	0xbe58f17b	-0.21185867
149	0xbe70751f	-0.23482178
150	0xbe77de88	-0.24205983
151	0xbe7e0f1d	-0.24810453
152	0xbe80ed0c	-0.25180852
153	0xbe7c3e81	-0.24633218
154	0xbe751a15	-0.23935731
155	0xbe610b30	-0.21976924
156	0xbe2a9eb2	-0.166621
157	0xbdf72f12	-0.12069525
158	0xbdbcd7fb	-0.092208825
159	0xbd860957	-0.0654475
160	0xbd79defd	-0.061003674
161	0xbdae7ff3	-0.08520498
162	0xbde7386b	-0.11290058
163	0xbe1f5687	-0.15560351
164	0xbe521250	-0.20514798
165	0xbe667f50	-0.22509503
166	0xbe6cd302	-0.23127368
167	0xbe740980	-0.23831749
168	0xbe785647	-0.24251662
169	0xbe74e3ae	-0.23914978
170	0xbe6b9efc	-0.23009866
171	0xbe584374	-0.21119481
172	0xbe271f94	-0.1632064
173	0xbdf4a456	-0.11945407
174	0xbdbbe134	-0.091738135
175	0xbd870ea3	-0.065945886
176	0xbd71d715	-0.05904301
177	0xbda67e83	-0.08129599
178	0xbdd80979	-0.10548682
179	0xbe134ee9	-0.1438557
180	0xbe3e87fb	-0.1860656
181	0xbe500007	-0.2031251
182	0xbe55654f	-0.20839427
183	0xbe5b4233	-0.21411972
184	0xbe5fd984	-0.2186032
185	0xbe5ed66a	-0.2176148
186	0xbe571ec5	-0.21007831
187	0xbe471495	-0.19441445
188	0xbe1e9c30	-0.15489268
189	0xbded27b0	-0.115798354
190	0xbdb5e6a0	-0.08881879
191	0xbd8685a6	-0.0656846
192	0xbd42ec49	-0.04758862
193	0xbd839117	-0.06424158
194	0xbda937af	-0.08262574
195	0xbde3e7a9	-0.1112817
196	0xbe134be8	-0.14384425
197	0xbe1fffc4	-0.1562491
198	0xbe20fc24	-0.15721184
199	0xbe215ccb	-0.15758054
200	0xbe231faf	-0.15930055
201	0xbe258838	-0.16165245
202	0xbe23bf1b	-0.1599087
203	0xbe1a619a	-0.15076295
204	0xbdf78681	-0.120862015
205	0xbdb78bcc	-0.08962211
206	0xbd8d2be4	-0.06893137
207	0xbd4f1253	-0.050554585
208	0xbd12e24d	-0.03586035
209	0xbd49a7e5	-0.049232382
210	0xbd80ca13	-0.062885426
211	0xbdabd10f	-0.08389484
212	0xbddc47ac	-0.10755858
213	0xbdebb0c5	-0.115083255
214	0xbded8c12	-0.11598982
215	0xbde8369f	-0.11338543
216	0xbde6f85f	-0.11277842
217	0xbde96f72	-0.1139821
218	0xbdebee99	-0.11520118
219	0xbde49d60	-0.111628294
220	0xbdb46ecd	-0.08810196
221	0xbd8426f8	-0.06452745
222	0xbd4e4e33	-0.050367545
223	0xbd130c25	-0.035900254
224	0xbcc7322c	-0.024315916
225	0xbd0c0b08	-0.034190208
226	0xbd35e0d0	-0.04440385
227	0xbd78de45	-0.060758848
228	0xbda1a751	-0.07893241
229	0xbda9417a	-0.08264442
230	0xbda90d92	-0.082545415
231	0xbda2db15	-0.07951943
232	0xbda43751	-0.08018363
233	0xbda8325f	-0.082127325
234	0xbda91aa2	-0.08257033
235	0xbda7b0ea	-0.081880406
236	0xbd853cfc	-0.065057725
237	0xbd445e65	-0.047941584
238	0xbd1568de	-0.036476962
239	0xbcdc9d86	-0.026930582
240	0xbc7f4f38	-0.015582852
241	0xbcb87005	-0.022514353
242	0xbcef1bbf	-0.029188035
243	0xbd250a5e	-0.04029309
244	0xbd5cb34e	-0.053881936
245	0xbd65ebbf	-0.056133028
246	0xbd6108df	-0.0549401
247	0xbd5144c4	-0.05109097
248	0xbd565f59	-0.052337024
249	0xbd62d025	-0.055374283
250	0xbd6e8081	-0.05822802
251	0xbd6d535c	-0.057940826
252	0xbd394176	-0.045228444
253	0xbd07333d	-0.03300785
254	0xbccea4f3	-0.025225138
255	0xbca03ddb	-0.019560745

conv_dw_1/depthwise_bias f4 [3]
0	0x40b41b9e	5.6283712
1	0x403359a9	2.8023474
2	0x40f27838	7.577175

conv_dw_1/depthwise_kernel f4 [1, 3, 3, 3]
0	0x3ba211ce	0.00494597
1	0xbd141de2	-0.03616131
2	0x3c3d5828	0.011556663
3	0x3c72d343	0.0148208765
4	0xbca436c4	-0.020045646
5	0x3c354042	0.011062684
6	0x3be19340	0.0068840086
7	0xbca1090a	-0.01965763
8	0x3af246f0	0.0018484276
9	0x3c92f47e	0.017938849
10	0xbd1e3920	-0.038628697
11	0x3c3b0732	0.01141529
12	0x3bdd9bc0	0.0067629516
13	0xbc9ba8a9	-0.019001322
14	0x3b97bd72	0.004630738
15	0x3c97295e	0.018452343
16	0xbc9c949f	-0.019113837
17	0x3c09c5ed	0.008409006
18	0x3bfd72ea	0.007734646
19	0xbc083acd	-0.0083148
20	0x3a90ebb2	0.0011056571
21	0x3c833322	0.016015593
22	0xbcb3b849	-0.02193846
23	0x3c24e335	0.010063936
24	0x3caa9166	0.020821285
25	0xbd9c105f	-0.0762031
26	0x3cbdf182	0.023186449

conv_dw_10/depthwise_bias f4 [128]
0	0xbe92060d	-0.2852024
1	0xbd5e8501	-0.05432606
2	0xbdaac905	-0.08339123
3	0xbe99f56f	-0.30070063
4	0xbd5975e7	-0.053090956
5	0xbdacf995	-0.084460415
6	0x3e6d3666	0.23165283
7	0x3e82de81	0.25560382
8	0x3e3ddd39	0.18541421
9	0x3e605dda	0.21910802
10	0xbcf85877	-0.03031562
11	0xbd02ec43	-0.031963598
12	0xbd9e5db1	-0.07732714
13	0x3da21a01	0.07915116
14	0xbe922e47	-0.28550932
15	0xbd0431fd	-0.032274235
16	0xbe80c658	-0.25151324
17	0xbeafad0a	-0.34311706
18	0xbd756cb8	-0.059918135
19	0xbdc9c46c	-0.098519176
20	0xbe65a153	-0.22424822
21	0x3bebe996	0.0071994765
22	0xbcc0f524	-0.023554392
23	0x3cffa9d3	0.031208908
24	0xbda325ef	-0.0796622
25	0x3ec00b33	0.37508544
26	0x3ebb720b	0.36610445
27	0xbd21cde2	-0.039502986
28	0xbd7d5080	-0.06184435
29	0xbd731633	-0.059347343
30	0xbeb6ee24	-0.35728562
31	0x3d11ccfa	0.03559587
32	0xbd1adcd3	-0.03780825
33	0x3eb0defd	0.34545127
34	0x3e3994cd	0.18123169
35	0xbd93ab80	-0.072104454
36	0xbce70b04	-0.028203495
37	0xbcecaa6b	-0.028889855
38	0xbd61e619	-0.05515108
39	0xbd8e4fd6	-0.06948821
40	0x3cc6360d	0.024195695
41	0xbca14e01	-0.019690515
42	0xbdd5ff08	-0.10449034
43	0x3ead15b7	0.3380563
44	0xbd179933	-0.037011337
45	0xbd11651a	-0.03549681
46	0xbd480110	-0.04882914
47	0x3e396df8	0.18108356
48	0xbd45447b	-0.04816101
49	0xbb7717ea	-0.0037703463
50	0xbd1a044d	-0.037601758
51	0xbe6518f8	-0.22372806
52	0xbc89a57f	-0.016802547
53	0x3e52d053	0.20587282
54	0x3daac313	0.08337989
55	0xbd9a5882	-0.07536413
56	0xbd7f706e	-0.06236308
57	0x3e8ecd23	0.27890882
58	0xbd530a5d	-0.051523555
59	0x3e89ac72	0.26889378
60	0x3edf733d	0.43642607
61	0xbd89aa45	-0.067219295
62	0xbd693aab	-0.056940716
63	0xbe491664	-0.19637448
64	0xbd6e82bc	-0.058230147
65	0xbd291031	-0.041275207
66	0xbce36085	-0.027755985
67	0xbda120bb	-0.07867571
68	0x3ec1a302	0.37819678
69	0xbd82a4de	-0.06379102
70	0xbd283515	-0.041066248
71	0xbd4adc20	-0.049526334
72	0x3e1d4844	0.15359598
73	0x3da13e73	0.07873239
74	0xbe37e205	-0.17957313
75	0x3cf83ff9	0.030303942
76	0x3e374dfd	0.17900844
77	0xbbbdaace	-0.005788184
78	0xbd1b4d8a	-0.037915744
79	0x3d1081a5	0.03527989
80	0xbcafc1c7	-0.021454705
81	0xbe6a9271	-0.22907425
82	0xbd3c03fe	-0.045902245
83	0xbe9af1dd	-0.30262652
84	0xbe1ccb94	-0.15312034
85	0x3e040ec4	0.12896258
86	0xbd7d1616	-0.06178864
87	0xbe1ba015	-0.15197785
88	0xbdaae33e	-0.08344124
89	0xbd6e2373	-0.058139276
90	0x3e56b584	0.2096768
91	0xbd0a61f7	-0.033784833
92	0x3e21b495	0.15791543
93	0xbdc793e2	-0.09745003
94	0x3edd5e3a	0.43235952
95	0xbd75b48a	-0.05998663
96	0xbe4c9237	-0.19977652
97	0xbb945627	-0.0045268717
98	0x3dd7625a	0.10516806
99	0x3e9fa756	0.31182355
100	0xbd125d60	-0.03573358
101	0xbe71c5a1	-0.23610546
102	0xbd1a7088	-0.037704974
103	0xbe64d032	-0.22345045
104	0xbd96df31	-0.07366789
105	0x3e01b338	0.12666023
106	0x3ea384ab	0.31937155
107	0x3d13d600	0.03609276
108	0x3deb19fb	0.11479565
109	0x3e4c106a	0.19928136
110	0xbd28743b	-0.04112647
111	0x3da17872	0.07884301
112	0xbd946c9a	-0.072472766
113	0xbd91530e	-0.070959195
114	0xbd4aff69	-0.049559984
115	0xbe1967d8	-0.1498102
116	0xbdc8e4c5	-0.09809259
117	0xbe49ea7d	-0.19718356
118	0xbd5b3a0a	-0.053522147
119	0xbdefdcea	-0.11712058
120	0x3f06a2fc	0.52592444
121	0x3ec27ae0	0.3798437
122	0xbdacb695	-0.08433262
123	0xbca7178e	-0.020396974
124	0x3b7b2d92	0.0038326723
125	0xbb141922	-0.0022597988
126	0xbd3d5546	-0.0462239
127	0x3daaca3a	0.08339353

conv_dw_10/depthwise_kernel f4 [1, 3, 3, 128]
0	0xbe530ea4	-0.20611054
1	0xbd5be4e5	-0.053685088
2	0xbdcb60a3	-0.09930541
3	0xbe8b0f2e	-0.2716002
4	0x3d013950	0.031548798
5	0x3c5e2c72	0.013560401
6	0xbd1d9541	-0.038472418
7	0xbe437cab	-0.19090526
8	0x3e814f38	0.25255752
9	0x3d9abbf5	0.07555381
10	0xbd814148	-0.063112795
11	0x3cff2c0c	0.031148933
12	0xbd77442a	-0.06036774
13	0xbdf31ae7	-0.118703656
14	0x3ddcb349	0.107763834
15	0x3cae4cf2	0.021276925
16	0x3e205a0f	0.15659355
17	0x3d09ef87	0.033675697
18	0x3d8e9dbb	0.069636784
19	0x3ebf264b	0.37333903
20	0x3f0bedf0	0.5465994
21	0xbe87ca2e	-0.26521438
22	0xbd8e5b79	-0.06951041
23	0xbd1b93f2	-0.03798289
24	0x3d51aeb3	0.051191997
25	0xbec5d38e	-0.38637966
26	0x3e5009a2	0.20316175
27	0x3ce70d8c	0.028204702
28	0xbe6828b9	-0.22671784
29	0xbcac014d	-0.020996714
30	0x3d5052f1	0.05086035
31	0x3df4c0e6	0.11950855
32	0x3d20a2f8	0.03921792
33	0xbd527dab	-0.051389378
34	0x3ec905c4	0.3926221
35	0xbdaa0fd9	-0.08303804
36	0xbdb7ff40	-0.08984232
37	0xbc492170	-0.0122760385
38	0xbd8b86d8	-0.06812829
39	0xbd4a1ce1	-0.049343947
40	0xbecb389e	-0.39691633
41	0xbd19fb99	-0.037593458
42	0xbc4132a4	-0.011791859
43	0xbeb05970	-0.34443235
44	0x3cacb56f	0.021082608
45	0x3d0d01eb	0.034425657
46	0xbbb5ce62	-0.0055482844
47	0x3ec93d97	0.39304802
48	0xbe90b669	-0.28264168
49	0x3e93c418	0.28860545
50	0x3e3600b8	0.17773712
51	0x3e9fceda	0.31212503
52	0x3c8d9e97	0.017287536
53	0x3dd8941d	0.10575125
54	0xbec31939	-0.3810518
55	0x3d05a64a	0.03262929
56	0x3d82ffb0	0.06396425
57	0x3e8e05f5	0.2773892
58	0xbd2bd35a	-0.041949607
59	0x3e45faca	0.1933395
60	0xbdb79b5c	-0.08965179
61	0xbec08e67	-0.37608644
62	0x3d06b3b6	0.03288623
63	0xbdc61bef	-0.09673297
64	0xbd5637f5	-0.05229946
65	0xbeaebd19	-0.34128645
66	0xbd932e47	-0.07186561
67	0xbc19139f	-0.009343057
68	0xbea8adb9	-0.3294504
69	0xbd8ec104	-0.069704086
70	0x3eab68af	0.33478305
71	0xbdcbaa65	-0.099446096
72	0xbe0008ed	-0.12503405
73	0xbe096fec	-0.13421601
74	0x3e182822	0.1485906
75	0x3e96fb40	0.29488564
76	0x3e5b9e5a	0.21447125
77	0xbe4e5d62	-0.2015281
78	0x3d55bf79	0.052184556
79	0x3db62f2a	0.088957146
80	0x3eb294cd	0.3487915
81	0x3ebb91b9	0.36634615
82	0xbd78e81f	-0.060768243
83	0x3d9ad411	0.0755998
84	0xbe5e3411	-0.2169955
85	0xbe505586	-0.20345125
86	0x3da41143	0.08011105
87	0x3dc4f5a0	0.09617162
88	0xbea4fd66	-0.32224578
89	0x3ce25e10	0.027632743
90	0x3e653978	0.22385204
91	0x3ed2221c	0.41041648
92	0xbd22b2f9	-0.039721463
93	0xbc32ede3	-0.010920974
94	0xbed6d39d	-0.41958323
95	0xbd909e8a	-0.07061489
96	0x3e835638	0.25651717
97	0xbdbed5af	-0.09318101
98	0xbefa1418	-0.48843455
99	0x3e08f393	0.13374166
100	0xbcc0b6a3	-0.023524588
101	0x3dcc166d	0.09965215
102	0xbca8aa19	-0.020588921
103	0xbea1ad36	-0.31577462
104	0x3db21971	0.08696259
105	0xbf166560	-0.58748436
106	0x3deba6a3	0.11506393
107	0x3eef61e4	0.46754372
108	0x3d8aca18	0.067768276
109	0x3ed7a054	0.42114508
110	0x3e0cc658	0.13747537
111	0x3d7f9276	0.062395535
112	0xbe3497f7	-0.17636095
113	0x3e67fa8c	0.2265417
114	0x3e907b75	0.2821919
115	0x3c3f83c8	0.011689134
116	0x3eeedef0	0.46654463
117	0x3ec9076a	0.3926347
118	0x3ba78b9f	0.0051130797
119	0xbdd844ef	-0.10560023
120	0xbe2c06e8	-0.1679951
121	0xbf0c7c3b	-0.5487706
122	0xbe5fd6fc	-0.21859354
123	0x3dfd32b6	0.12363188
124	0xbe8cbca9	-0.27487686
125	0x3e3080e9	0.17236675
126	0x3b957d08	0.004562024
127	0x3ed5dab4	0.4176842
128	0x3e72944b	0.23689382
129	0xbd801b61	-0.06255222
130	0x3dc85bf8	0.09783167
131	0x3d993d5e	0.07482408
132	0xbd7a490c	-0.06110482
133	0xbc85ef23	-0.01634938
134	0xbd218a91	-0.039438788
135	0x3dbf4e8b	0.09341153
136	0xbe3b49ab	-0.18289821
137	0x3dc6acab	0.097009026
138	0x3d54db2c	0.05196683
139	0x3b6a9208	0.0035792608
140	0x3c8c8ebb	0.017157903
141	0xbeba5981	-0.3639641
142	0x3ec152b3	0.37758407
143	0xbd9b6cbd	-0.075890996
144	0xbe9396ad	-0.28825894
145	0xbe855c4c	-0.2604698
146	0xbdf752fe	-0.120763764
147	0x3ee29c21	0.44259742
148	0x3c23871e	0.009980945
149	0xbe03bab9	-0.12864198
150	0x3cb399f9	0.021924006
151	0xbe6f3c81	-0.23362924
152	0x3d2b6bf2	0.04185099
153	0xbdaac6f0	-0.083387256
154	0x3b87eb85	0.004147949
155	0x3c826d90	0.015921384
156	0xbec6493b	-0.38727745
157	0xbbec0bc0	-0.007203549
158	0xbee9d030	-0.45666647
159	0x3d4547e6	0.04816427
160	0x3d8da356	0.069159195
161	0xbea65267	-0.32484743
162	0xbe41ee07	-0.18938456
163	0xbd0fb2bd	-0.035082567
164	0x3dbcac48	0.092125475
165	0xbcec9513	-0.028879678
166	0x3c79a5d3	0.0152372895
167	0xbe3ac009	-0.18237318
168	0xbe80229f	-0.25026414
169	0xbcecb59f	-0.028895197
170	0xbc0ee9a1	-0.008722694
171	0x3d660fcd	0.056167413
172	0xbbbda259	-0.0057871756
173	0x3e0022cc	0.12513274
174	0xbd563d8d	-0.052304793
175	0x3d92cad8	0.071675956
176	0x3cfe5149	0.03104462
177	0xbddc2e79	-0.107510515
178	0xbda4d0e3	-0.080476545
179	0x3f0a3625	0.5398887
180	0xbc9603d9	-0.018312382
181	0xbe8c4e66	-0.27403563
182	0x3efd474a	0.49468452
183	0xbd98dfb9	-0.07464547
184	0xbd07bfe9	-0.033142004
185	0xbe29d79f	-0.16586159
186	0x3da19274	0.07889262
187	0xba9ad513	-0.0011812769
188	0x3e45910f	0.19293617
189	0x3df6dec7	0.1205421
190	0x3c12eb6c	0.008967262
191	0xbe0078b0	-0.12546039
192	0x3d953dc1	0.07287169
193	0xbe72837f	-0.23682974
194	0xbd1a686d	-0.037697244
195	0x3d0494d7	0.032368507
196	0xbd7fc9b0	-0.062448204
197	0x3cd77dad	0.026305044
198	0xbe53f0ab	-0.20697276
199	0xbd9bf7c6	-0.076156184
200	0xbc97f02d	-0.018547142
201	0x3e85703b	0.26062188
202	0x3eb9ee26	0.36314505
203	0x3de7f21c	0.113254756
204	0xbe659eaf	-0.22423814
205	0x3e81db71	0.25362733
206	0xbd047db8	-0.032346457
207	0x3ef3fc0b	0.4765323
208	0x3eb8e872	0.36114842
209	0x3e9e0686	0.30864352
210	0x3c25611c	0.010093953
211	0x3e8295c0	0.25504875
212	0xbde0fe23	-0.10985973
213	0xbec9622a	-0.39332706
214	0xbcab7966	-0.02093191
215	0x3e2e2549	0.1700641
216	0xbec39bae	-0.38204712
217	0xbd814a84	-0.06313041
218	0xbe083e56	-0.1330503
219	0x3e68dcf9	0.22740544
220	0x3e9956dc	0.2994908
221	0xbc594740	-0.013261616
222	0x3cc48d34	0.023993112
223	0xbdc47bfd	-0.095939614
224	0xbe8714b1	-0.26382974
225	0xbe1c8cf5	-0.15288146
226	0xbde9448c	-0.113900274
227	0xbd8faec9	-0.070157595
228	0x3ebcab6a	0.3684953
229	0x3eb2853f	0.34867284
230	0x3c055989	0.008139023
231	0x3d44d6af	0.0480563
232	0x3d803754	0.06260553
233	0xbe684e6c	-0.22686166
234	0xbed51030	-0.41613913
235	0xbd4611ee	-0.048356943
236	0xbc02da39	-0.007986599
237	0x3e4d1cee	0.20030567
238	0x3e3ca65c	0.18422836
239	0xbe8a2153	-0.2697855
240	0x3cf3e852	0.029773865
241	0xbd756162	-0.059907325
242	0x3e6c5462	0.23079064
243	0x3e2ba9a4	0.16763932
244	0x3e149cc6	0.1451293
245	0x3ea31d77	0.31858417
246	0xbcf198bf	-0.02949178
247	0xbea57944	-0.3231908
248	0x3e292c32	0.16520765
249	0xbd39c7b4	-0.045356467
250	0xbe924216	-0.28566045
251	0xbd12119e	-0.035661332
252	0xbe33073c	-0.17483228
253	0xbded482f	-0.115860336
254	0x39541bc6	0.00020228242
255	0x3cc48472	0.023988936

conv_dw_2/depthwise_bias f4 [16]
0	0xbd11334a	-0.035449304
1	0xbe072d74	-0.13200933
2	0x3f136eb2	0.5759078
3	0x3f03122d	0.5119961
4	0xbdc3c2a6	-0.095586106
5	0x3e8a43e1	0.27004912
6	0xbd405cdf	-0.04696357
7	0x3f5c9f82	0.8618089
8	0x3da2f956	0.07957713
9	0xbd4b659a	-0.04965744
10	0xbcb97fea	-0.022644002
11	0xbdb0f807	-0.086410575
12	0xbc06de97	-0.0082317805
13	0xbd429201	-0.04750252
14	0x3f60546c	0.8762882
15	0xbdfa9580	-0.12235546

conv_dw_2/depthwise_kernel f4 [1, 3, 3, 16]
0	0xbe117256	-0.14203772
1	0x3e139d93	0.14415579
2	0xbeaf6ab6	-0.342611
3	0xbfcedb1f	-1.616062
4	0xbcf05478	-0.029337153
5	0x3ea8a80b	0.32940707
6	0x3edbf282	0.42958456
7	0xbead7d2c	-0.3388456
8	0x3e8d4dda	0.2759846
9	0x3f0f27b5	0.55919963
10	0x3e49d453	0.19709902
11	0x3edd7faa	0.43261462
12	0xbe15b07a	-0.14618102
13	0xbeb3a465	-0.3508636
14	0xbbbc0087	-0.0057373676
15	0x3d3b4186	0.045716785
16	0xbe8987ee	-0.2686152
17	0x3e8ffd5e	0.2812299
18	0xbd032fe2	-0.032028086
19	0xbec4ab0e	-0.38411754
20	0x3d515a93	0.05111177
21	0x3e87ff9a	0.26562196
22	0x3e832787	0.25616094
23	0x3da83774	0.08213702
24	0x3e522bd0	0.20524526
25	0x3e539237	0.20661245
26	0xbde6b6fd	-0.11265371
27	0x3e6d6502	0.23183063
28	0x3d198bea	0.037486948
29	0xbd879792	-0.066207066
30	0x3de163a0	0.1100533
31	0xbe8f825d	-0.28029147
32	0x3e9d2a20	0.306962
33	0x3d65c8c1	0.056099657
34	0xbcd7f82c	-0.026363455
35	0xbf918741	-1.1369401
36	0x3f010fdd	0.5041483
37	0x3e10094b	0.14066045
38	0xbceebddc	-0.029143266
39	0xbe9fb5bb	-0.31193337
40	0x3eabd0c8	0.33557725
41	0x3c564b55	0.013079484
42	0x3e4d01b9	0.20020188
43	0x3d50e7b3	0.051002216
44	0x3d5af5ff	0.053457256
45	0xbee7dfcf	-0.4528794
46	0x3dcd7aa4	0.100331575
47	0xbdb4a785	-0.08821014
48	0xbe97503d	-0.29553404
49	0x3e4f38dc	0.20236534
50	0x3d2d12d4	0.042254284
51	0xbe2dc2a8	-0.16968787
52	0xbe04f9a9	-0.12985863
53	0x3e2021f0	0.15637946
54	0x3e2c34fb	0.16817085
55	0x3e2d3e22	0.16918233
56	0x3d5bab51	0.053630177
57	0x3de5c5ce	0.11219369
58	0xbdba97cf	-0.091109864
59	0x3ec23f93	0.37939128
60	0x3d593e2d	0.05303781
61	0x3ded3ecd	0.11584244
62	0xbd5202fe	-0.051272385
63	0x3dbdd23e	0.09268616
64	0xbe177380	-0.14790154
65	0x3d3ebc8b	0.046566527
66	0x3e4d8c32	0.20073012
67	0xbef61c23	-0.48068342
68	0xbc9fdb4f	-0.019513754
69	0xbe038694	-0.12844306
70	0xbd728fe9	-0.059219275
71	0x3ea10ac7	0.31453535
72	0xbd594f10	-0.053053916
73	0x3e421203	0.18952183
74	0xbdeae747	-0.11469894
75	0xbdb39fd4	-0.08770719
76	0x3e26e8b1	0.16299702
77	0x3d44d634	0.048055843
78	0x3d15390c	0.036431357
79	0xbe397983	-0.1811276
80	0x3e395737	0.18099676
81	0x3b7bb5b8	0.0038407873
82	0x3eb1e2dc	0.34743392
83	0xbe9d1760	-0.30681896
84	0x3d3e44ff	0.04645252
85	0xbd3b1826	-0.045677327
86	0xbe072277	-0.13196741
87	0x3e0b9a49	0.13633074
88	0x3c82232a	0.015885908
89	0x3d0dd7d0	0.034629643
90	0x3e237590	0.15962815
91	0xbe532ebc	-0.20623296
92	0x3dd84a7e	0.10561083
93	0xbd62c3b1	-0.055362407
94	0x3cb83275	0.022484997
95	0x3e396faa	0.18109003
96	0xbe3a62e0	-0.1820178
97	0x3c1c514c	0.009540867
98	0xbec506ed	-0.38481846
99	0xbfa289dd	-1.2698323
100	0xbed74cd7	-0.42050812
101	0x3d16a562	0.036778815
102	0xbb84d6f0	-0.004053943
103	0xbec77152	-0.38953644
104	0x3e8c4ae0	0.27400875
105	0x3d980611	0.07423032
106	0x3e43178f	0.19051956
107	0xbd91a7fc	-0.071121186
108	0x3e182bf6	0.1486052
109	0x3eb5acf4	0.35483515
110	0x3deb0d20	0.11477113
111	0x3eaad354	0.33364356
112	0x3e08e40f	0.13368247
113	0x3d6da5fe	0.05801963
114	0x3e7badca	0.24578014
115	0xbe75d309	-0.24006285
116	0xbde7e4f7	-0.113229685
117	0x39a72efc	0.00031887728
118	0xbe310f74	-0.17291051
119	0x3e57e0da	0.21081868
120	0x3d6b9f08	0.05752471
121	0xbe2944c1	-0.16530134
122	0x3daebb5f	0.08531832
123	0xbe1545b1	-0.14577366
124	0x3e554a20	0.20829058
125	0x3e1c4e56	0.15264258
126	0x3df25b77	0.11833852
127	0x3da630ac	0.08114752
128	0x3ed69d0f	0.419167
129	0xbe8b7052	-0.2723413
130	0xbd67dbdb	-0.056606155
131	0xbf9c23bb	-1.2198404
132	0x3dda2242	0.106510654
133	0xbe6038cc	-0.21896666
134	0xbee80db2	-0.4532295
135	0xbe843e6e	-0.2582888
136	0xbd2e356a	-0.04253141
137	0xbf52637f	-0.8218307
138	0x3e2cd1a1	0.16876842
139	0xbf1046ab	-0.5635783
140	0x3e445801	0.19174196
141	0x3e84b4fa	0.25919324
142	0x3d3f4a43	0.04670168
143	0x3e90fac6	0.28316325

conv_dw_3/depthwise_bias f4 [16]
0	0x3e26f277	0.1630343
1	0x3dc57a31	0.09642447
2	0x3e908310	0.28224993
3	0xbeba1c04	-0.363495
4	0x3d2bc2ce	0.041933827
5	0x3e154c9d	0.14580007
6	0xbd4764e1	-0.04868019
7	0x3b5977b6	0.0033182926
8	0x3d42cbad	0.04755752
9	0x3dcf931c	0.10135481
10	0xbe86e154	-0.26343787
11	0x3e6a55d5	0.22884305
12	0xbd3547d0	-0.04425794
13	0xbc592c21	-0.01325515
14	0xbe5b76be	-0.21432015
15	0xbd811b1e	-0.06304

conv_dw_3/depthwise_kernel f4 [1, 3, 3, 16]
0	0xbf45b417	-0.7722792
1	0x3e06e924	0.13174874
2	0x3c871f71	0.016494485
3	0x3ea24e9c	0.317006
4	0x3eeb54c2	0.45963103
5	0xbeff6820	-0.4988413
6	0x3d2e7750	0.042594254
7	0xbf800624	-1.0001874
8	0x3e0472a3	0.12934355
9	0xbe96f881	-0.29486468
10	0x3e9df4e9	0.30850914
11	0xbeb6edcf	-0.3572831
12	0xbd1a1e38	-0.037626475
13	0x3e1bf500	0.15230179
14	0xbe20a74e	-0.15688822
15	0xbeb4bc74	-0.35300028
16	0x3d8146ed	0.06312356
17	0x3e453908	0.19260037
18	0x3e3ac89b	0.18240587
19	0x3eab82b0	0.33498144
20	0x3e09d751	0.13461043
21	0xbeeb0bc7	-0.45907423
22	0x3dcdbb7f	0.10045528
23	0xbeabc2c6	-0.33547038
24	0x3ed07e7f	0.4072151
25	0x3bc94cf5	0.006143207
26	0xbc3d2b23	-0.011545929
27	0x3e81dceb	0.2536386
28	0xbe0e4e71	-0.1389711
29	0x3e16ce6e	0.14727184
30	0x3e8c161e	0.27360624
31	0xbd78459f	-0.06061327
32	0xbf476ab9	-0.7789722
33	0x3f019f45	0.5063365
34	0x3f0a3869	0.53992325
35	0xbcd8b55e	-0.02645367
36	0x3d2e9435	0.04262181
37	0x3e77e592	0.24208668
38	0xbda35298	-0.07974738
39	0x3c1df3b4	0.009640623
40	0x3d45ca8b	0.048288863
41	0x3ef49c36	0.4777543
42	0xbdf44aa7	-0.11928301
43	0x3eb9c2b0	0.36281347
44	0x3c1422bd	0.009041485
45	0xbe33cc1d	-0.17558332
46	0xbee8abb8	-0.4544351
47	0xbe34790e	-0.17624304
48	0x3eeac1a1	0.45850852
49	0xbe90ecb7	-0.283056
50	0xbea7682e	-0.3269667
51	0x3e5bf29c	0.21479267
52	0x3dc52913	0.09626975
53	0xbd8a48e3	-0.06752183
54	0x3ea19487	0.3155863
55	0x3e158986	0.14603242
56	0x3e997d88	0.29978585
57	0xbde4c050	-0.11169493
58	0x3eb8f596	0.36124867
59	0xbe9747a5	-0.29546848
60	0xbe3c3eb7	-0.18383299
61	0x3ee02c46	0.43783778
62	0x3e8c7d09	0.27439144
63	0xbd31fada	-0.04345212
64	0x3f4685aa	0.77547705
65	0xbde3a113	-0.11114707
66	0xbab3dddc	-0.0013722735
67	0x3e569536	0.20955357
68	0x3e2e0350	0.16993451
69	0xbdca8a79	-0.09889693
70	0x3d67469b	0.05646382
71	0x3bdcda31	0.0067398776
72	0xbd6c5b83	-0.05770446
73	0xbdc1d18c	-0.09463796
74	0x3e54735f	0.20747136
75	0x3ea7c843	0.32769975
76	0xbe182254	-0.14856845
77	0x3f1016a9	0.56284577
78	0x3eeb4bea	0.45956355
79	0x3e363e2d	0.17797156
80	0x3f069a90	0.52579594
81	0x3ca96bc0	0.020681262
82	0x3de63ef6	0.112424776
83	0x3ece7ff6	0.40332
84	0xbe3096c8	-0.17245018
85	0x3dd4755f	0.10373949
86	0x3df484e7	0.119394116
87	0x3edc0dc8	0.42979264
88	0x3e8240ba	0.25440007
89	0x3e952c8a	0.29135543
90	0x3e004f01	0.12530138
91	0x3d8a720a	0.067600325
92	0xbdda440f	-0.106575124
93	0x3ec3f80b	0.3827518
94	0x3ea08d17	0.31357643
95	0x3e5fa4e9	0.21840252
96	0xbf712231	-0.94192797
97	0xbeb95a9d	-0.36201945
98	0xbe84c7ef	-0.25933787
99	0x3e08479b	0.13308565
100	0x3dd0b9aa	0.101916626
101	0x3ecc2d45	0.39878288
102	0x3eb17aa7	0.3466389
103	0x3e4c139e	0.19929358
104	0x3c152523	0.009103092
105	0xbe4a37f7	-0.19747911
106	0x3d98224f	0.07428419
107	0xbe76e94e	-0.24112436
108	0xbe0e01cd	-0.13867874
109	0xbdb23941	-0.087023266
110	0xbe2e98b3	-0.17050438
111	0xbe713271	-0.23554398
112	0x3c6c78d9	0.014433109
113	0xbe3d59a6	-0.1849123
114	0xbd82539d	-0.06363604
115	0x3e7fa217	0.24964176
116	0xbd170dca	-0.036878385
117	0x3d6f372d	0.05840223
118	0x3e114485	0.14186294
119	0x3d2a7a1e	0.041620366
120	0x3ef100bd	0.47070876
121	0x3e005f84	0.12536436
122	0x3e7f320b	0.24921434
123	0xbc256791	-0.010095493
124	0xbe08dc70	-0.1336534
125	0x3e65ef23	0.22454505
126	0x3e7aa7e7	0.24478112
127	0x3e921148	0.2852881
128	0xbf0a8744	-0.5411265
129	0x3dff1a9d	0.12456248
130	0x3e3f7601	0.18697359
131	0x3e69bcfa	0.22825995
132	0xbe660f8d	-0.2246687
133	0x3ee39fc6	0.44457835
134	0x3e0b1703	0.13582997
135	0x3ef07583	0.46964654
136	0x3e894022	0.26806742
137	0x3e97c4b2	0.29642254
138	0xbd87f1ac	-0.06637892
139	0xbe8226dc	-0.25420272
140	0xbdc5863f	-0.09644746
141	0xbdb5553c	-0.08854148
142	0x3c6e1bac	0.014532965
143	0x3e98a5c2	0.29813963

conv_dw_4/depthwise_bias f4 [32]
0	0x3b36fd19	0.0027921854
1	0x3a35ddf4	0.00069376756
2	0x3d6c93cf	0.05775815
3	0x3dbb001f	0.091308825
4	0xbcd1e58b	-0.02562215
5	0xbd4ac591	-0.04950482
6	0xbf0c21cb	-0.54739064
7	0xbc9130c6	-0.017723452
8	0xbd8cf2b3	-0.06882229
9	0xbe534465	-0.20631559
10	0x3c115ebc	0.008872684
11	0x3a067586	0.00051292067
12	0xbdb5c83f	-0.088760845
13	0xbd96a20d	-0.073551275
14	0xbd5a59af	-0.053308185
15	0xbd3b246a	-0.045689024
16	0xbd9ec118	-0.077516735
17	0x3b63d8bd	0.0034766637
18	0xbca88005	-0.020568857
19	0x3ecb8099	0.3974655
20	0x3df1492e	0.11781536
21	0x3c89d9c9	0.01682748
22	0x3ecd8a42	0.40144545
23	0x3e421cab	0.18956248
24	0xbd6a0af7	-0.057139363
25	0x3ed32987	0.4124262
26	0xbdb10f89	-0.08645541
27	0x3f00d750	0.5032854
28	0xbcd8b1c3	-0.02645195
29	0x3e569a4b	0.20957296
30	0xbcfa4d6e	-0.0305545
31	0x3ef47a96	0.47749776

conv_dw_4/depthwise_kernel f4 [1, 3, 3, 32]
0	0xbec0b46c	-0.3763765
1	0xbe8778cd	-0.2645935
2	0x3ea3bf7f	0.31982037
3	0x3e0f8bb2	0.14018133
4	0x3ea12048	0.3146994
5	0x3ede056e	0.43363518
6	0xbe6c2f6d	-0.23064966
7	0x3e274690	0.16335511
8	0x3e71ae5b	0.23601668
9	0xbef1ce65	-0.4722778
10	0x3ecb4801	0.39703372
11	0x3e68b26d	0.22724314
12	0xbd69a89b	-0.05704556
13	0xbe8c1a90	-0.27364016
14	0xbdbdc0d9	-0.092652984
15	0x3e800022	0.250001
16	0xbb7d7964	-0.003867709
17	0x3ea25936	0.31708688
18	0x3e757bd6	0.23973021
19	0xbde0d927	-0.109789185
20	0x3e8ccbc1	0.27499202
21	0x3e9ecbfa	0.31014997
22	0xbdc56412	-0.096382275
23	0x3e8c6452	0.27420288
24	0x3dcadd90	0.09905541
25	0x3ee0663b	0.43827996
26	0x3e533e4f	0.20629238
27	0x3def1c54	0.11675325
28	0x3e8515e7	0.25993273
29	0x3dfc6bd0	0.12325251
30	0xbeede7fb	-0.4646605
31	0x3d2f1aa4	0.042750016
32	0xbeae86ad	-0.34087124
33	0xbe45e4b6	-0.19325528
34	0x3ec1530f	0.3775868
35	0x3e0da3df	0.13832043
36	0x3e79b938	0.24387062
37	0x3eb6420b	0.35597262
38	0x3e068fa4	0.13140732
39	0x3ec4b89e	0.38422102
40	0x3e548554	0.20753986
41	0xbe51032f	-0.2041137
42	0x3e88734a	0.2665046
43	0x3d108f68	0.035293013
44	0xbaa858fb	-0.0012843901
45	0x3de2e56d	0.11078916
46	0xbdd928c6	-0.1060348
47	0x3ebb28f7	0.3655469
48	0xbdb091de	-0.08621572
49	0x3cd10f28	0.025519922
50	0xbd49b9cd	-0.04924946
51	0x3e136364	0.14393383
52	0x3e410ff1	0.18853737
53	0x3e559fce	0.20861742
54	0x3dcda377	0.10040944
55	0xbea28f2e	-0.31749862
56	0x3d7c0d0a	0.061535873
57	0xbd8a8640	-0.067638874
58	0xbe8b5639	-0.2721422
59	0xbe5840ed	-0.21118517
60	0x3e8cb9b0	0.27485418
61	0xbdbd759a	-0.09250946
62	0xbe68cd9d	-0.22734685
63	0xbe63d482	-0.22249034
64	0xbdce0fe4	-0.10061625
65	0xbeed12ac	-0.46303308
66	0x3e37d901	0.17953874
67	0xbeab6a38	-0.33479476
68	0x3ea52a51	0.32258847
69	0xbf308499	-0.6895233
70	0x3e822def	0.2542567
71	0xbd0c5ac6	-0.034266256
72	0x3d9fc224	0.07800701
73	0xbe176b56	-0.14787039
74	0xbd66e3de	-0.056369655
75	0xbdb4e72b	-0.08833154
76	0x3ea6c33b	0.32570824
77	0x3eb9bf15	0.36278597
78	0xbcbda40b	-0.02314951
79	0x3dfcf45b	0.123512946
80	0x3de1471b	0.109998904
81	0xbedad454	-0.42740119
82	0xbeb9703e	-0.36218446
83	0xbea4dc92	-0.32199532
84	0xbe923aa0	-0.28560352
85	0xbe0a8262	-0.135263
86	0x3e89bf48	0.2690375
87	0xbde86251	-0.11346877
88	0xba859eac	-0.0010194383
89	0x3dcaf9ee	0.099109516
90	0xbedfad75	-0.43687025
91	0xbe571c97	-0.21007
92	0x3eb5b312	0.35488182
93	0x3ea43bd6	0.320769
94	0xbe274401	-0.16334535
95	0xbf8c9a8f	-1.0984668
96	0xbda7fa53	-0.082020424
97	0x3dc7d046	0.09756522
98	0xbd92c6a6	-0.071667954
99	0x3d5f28eb	0.05448238
100	0x3dab6bcf	0.08370172
101	0xbcd8ba0d	-0.026455903
102	0xbe7e7be3	-0.24851947
103	0x3dfca75f	0.12336611
104	0x3d204072	0.03912396
105	0xbdc3fa3d	-0.095692135
106	0x3e62f792	0.22164753
107	0x3e809b1a	0.25118333
108	0xbddf2bbc	-0.108970135
109	0xbe8fa00f	-0.28051803
110	0xbd29a3f4	-0.041416124
111	0x3cad9478	0.02118896
112	0xbccc1aa5	-0.024915049
113	0x3e302487	0.17201434
114	0x3e784861	0.2424636
115	0xbe380617	-0.17971073
116	0x3e4ba128	0.19885695
117	0x3e424bab	0.18974178
118	0x3c57db81	0.013174892
119	0x3d2f69f9	0.042825673
120	0x3e7aeeb3	0.24505119
121	0xbe2a0ceb	-0.1660649
122	0x3e19211b	0.14954035
123	0xbea02ba4	-0.31283295
124	0x3c624c26	0.0138121005
125	0xbe3142bf	-0.17310618
126	0xbd69a45f	-0.057041522
127	0x3d84ed8d	0.06490622
128	0xbe44a411	-0.19203211
129	0x3c99802f	0.01873788
130	0xbda061b5	-0.07831136
131	0x3e325db5	0.17418559
132	0xbc610ac3	-0.013735476
133	0xbded28da	-0.115800574
134	0x3d5cb174	0.05388017
135	0x3ebdb72d	0.37053815
136	0x3e1bc633	0.15212326
137	0xbcc0d4fe	-0.023539063
138	0xbe27922e	-0.16364357
139	0x3e6387f4	0.22219831
140	0x3dfeb8d9	0.12437601
141	0x3c7962be	0.015221296
142	0x3df166dd	0.11787198
143	0xbe3300b9	-0.17480744
144	0x399c26e4	0.00029783614
145	0x3d7cf1cd	0.061754037
146	0x3d847ac1	0.06468726
147	0x39cb512d	0.00038779658
148	0x3e9fb8a1	0.31195548
149	0x3c7bbc37	0.015364698
150	0x3d994e99	0.074856944
151	0xbe3cee82	-0.18450359
152	0x3e683c19	0.22679175
153	0xbe603920	-0.21896791
154	0x3da15a14	0.07878509
155	0xbe0a97b3	-0.13534431
156	0xbc5bcfdf	-0.01341626
157	0xbeed2988	-0.46320748
158	0x3d8beda1	0.068324335
159	0xbdfcfede	-0.123532996
160	0x3d86636f	0.06561934
161	0xbb988ff6	-0.0046558334
162	0x3d3f72ee	0.046740465
163	0xbedc8cae	-0.4307608
164	0xbd962283	-0.07330801
165	0xbef992d6	-0.4874484
166	0x3e7cb508	0.24678433
167	0x3d94f226	0.07272749
168	0x3da740c5	0.08166651
169	0x3e461df6	0.19347367
170	0xbe0d152e	-0.1377761
171	0x3dad382d	0.0845798
172	0x3e27347d	0.16328616
173	0x3e40f34e	0.18842813
174	0x3d0d2d76	0.034467183
175	0xbddcbd29	-0.10778267
176	0x3ca52e76	0.020163756
177	0xbe8e7a7e	-0.2782783
178	0xbea2b5bb	-0.31779274
179	0xbebfed6f	-0.37485835
180	0xbd1085ee	-0.035283975
181	0xbea4e041	-0.32202342
182	0x3e7da53f	0.24770068
183	0xbefb3672	-0.49064976
184	0x3e5a9670	0.2134645
185	0xbcc1a6cc	-0.023639105
186	0xbeb5d43e	-0.3551349
187	0xbdcc89af	-0.099871986
188	0x3def7b34	0.11693421
189	0xbdda3d7e	-0.1065626
190	0x3df716ae	0.12064873
191	0xbf0f5ace	-0.5599793
192	0x3e9fc9bf	0.31208608
193	0x3ece4a77	0.40291187
194	0xbeb0529b	-0.34438023
195	0x3dd21a60	0.10258937
196	0xbe9c4519	-0.30521467
197	0x3efb6ae7	0.49104998
198	0xbf393324	-0.7234366
199	0xbefc9937	-0.49335644
200	0xbf038fc6	-0.51391256
201	0x3e804d0a	0.25058776
202	0xbd0be38e	-0.03415256
203	0x3cb245d9	0.021761822
204	0xbe125661	-0.14290763
205	0xbee4fafd	-0.4472274
206	0xbd8143b7	-0.06311744
207	0xbc1b2ef3	-0.009471643
208	0x3ed99aa6	0.425008
209	0x3eae3ac4	0.3402921
210	0x3eb113fe	0.34585565
211	0x3ca87456	0.020563286
212	0x3e1dd84a	0.15414539
213	0x3e0ccb98	0.1374954
214	0xbec418e7	-0.3830025
215	0x3ec07ab0	0.37593603
216	0x3d0d48dc	0.034493312
217	0x3e452301	0.19251634
218	0x3ea6cd15	0.3257834
219	0xbe2db24d	-0.16962548
220	0xbec4ee46	-0.38463038
221	0x3e3adc18	0.18248022
222	0x3d798af2	0.060923524
223	0x3ef933e9	0.48672417
224	0x3e937e12	0.28807122
225	0x3e82e07d	0.25561896
226	0xbeb88a0a	-0.36042815
227	0x3e096e8f	0.13421081
228	0xbe86a1eb	-0.2629541
229	0x3ec43d03	0.38327798
230	0x3d824c23	0.06362178
231	0x3d81d2bb	0.06339022
232	0xbf0f2be9	-0.55926377
233	0x3e13d3f1	0.14436318
234	0xbe2be1fd	-0.16785426
235	0xbe15869b	-0.14602129
236	0x3e59ddf4	0.21276075
237	0x3c616ca1	0.013758809
238	0x3d4de3e1	0.05026615
239	0x3e6251ee	0.22101566
240	0xbdd6a81b	-0.10481282
241	0x3d3d4d59	0.046216343
242	0x3cd02447	0.025407923
243	0x3b167a64	0.0022961134
244	0x3e3e10b8	0.18561065
245	0x3b4b23d1	0.003099669
246	0xbe2bf3a6	-0.16792163
247	0x3e31557a	0.17317763
248	0xbde205a2	-0.110362306
249	0xbdcb76d6	-0.099347755
250	0x3e735f52	0.2376683
251	0xbde7888f	-0.11305343
252	0xbe9c5dc7	-0.30540296
253	0xbe1ce9d9	-0.15323581
254	0x3e87bbbb	0.26510414
255	0x3e7f8180	0.24951744

conv_dw_5/depthwise_bias f4 [32]
0	0x3eb81322	0.35952097
1	0xbc848b28	-0.016179636
2	0xbc64bd4a	-0.013961146
3	0x3d174226	0.03692832
4	0x3e243b6d	0.16038294
5	0xbc0b741c	-0.008511569
6	0xbe0a06ca	-0.13479152
7	0x3d98db27	0.07463675
8	0xbbc1cdd6	-0.00591443
9	0xbe2bf403	-0.16792302
10	0x3dcc59f1	0.099780925
11	0xbd50dc41	-0.0509913
12	0xbe39e740	-0.18154621
13	0xbc45f777	-0.012082926
14	0x3dabfdb5	0.08398
15	0xbdb06272	-0.08612527
16	0xbd29a471	-0.04141659
17	0x3d8fa55f	0.07013964
18	0x3eb232e3	0.34804448
19	0x3e53fd81	0.20702173
20	0x3c0a5c9f	0.008444934
21	0x3c811829	0.01575859
22	0xbd45f828	-0.048332363
23	0x3f11b5cc	0.56918025
24	0xbd9c73e0	-0.07639289
25	0x3d8d1e12	0.06890501
26	0xbc3c6cc1	-0.011500538
27	0x3e139727	0.14413129
28	0x3dd214d1	0.10257877
29	0x3ef77c99	0.48337248
30	0xba5331c8	-0.0008056429
31	0x3e78d432	0.24299696

conv_dw_5/depthwise_kernel f4 [1, 3, 3, 32]
0	0xbf142285	-0.5786517
1	0x3d38ae25	0.045087952
2	0xbdafc704	-0.08582881
3	0xbec96eec	-0.3934244
4	0x3ecb13a3	0.3966342
5	0x3d6a9ec1	0.057280306
6	0xbe6ea7e5	-0.23306234
7	0x3e9ba10a	0.303963
8	0xbc8f533f	-0.01749575
9	0xbe215fd7	-0.15759216
10	0x3e2d4463	0.16920619
11	0x3ee10c07	0.4395449
12	0x3ea5cae0	0.32381344
13	0x3da898e8	0.082322896
14	0x3f220806	0.6329349
15	0x3ecb0ec6	0.3965971
16	0x3e591df6	0.21202835
17	0xbdbd39b4	-0.092395216
18	0xbd34ba1a	-0.044122793
19	0xbf314b81	-0.69255835
20	0x3ef66d22	0.48130137
21	0xbe1482c4	-0.14503008
22	0x3dd4fe68	0.10400087
23	0xbdd82ae2	-0.10555054
24	0x3db2aa00	0.08723831
25	0xbedff454	-0.43741095
26	0x3ea6a0d5	0.3254458
27	0x3e62de7d	0.22155185
28	0x3f0bb2b4	0.54569554
29	0x3d80b3ac	0.0628427
30	0x3ea0e047	0.3142111
31	0x3dab8fdc	0.083770484
32	0xbefd8084	-0.49512112
33	0x3eca3b95	0.39498582
34	0x3ee97450	0.45596552
35	0xbeb397d0	-0.3507676
36	0xbea6012f	-0.32422778
37	0x3e36e2cb	0.17859952
38	0xbed2f687	-0.4120371
39	0x3e9382fa	0.28810865
40	0x3e7626cb	0.24038236
41	0xbe5574ce	-0.20845339
42	0x3e8fc76b	0.2808183
43	0x3e4aae91	0.19793154
44	0x3e123e51	0.14281584
45	0x3dbb1d9b	0.09136506
46	0x3e63b2ec	0.22236222
47	0xbd912d64	-0.07088736
48	0x3e4407e8	0.19143641
49	0xbe8cb987	-0.27485296
50	0xbef8fe62	-0.4863158
51	0x3dd20ad8	0.102559745
52	0x3ed24b73	0.41073188
53	0xbe3d6562	-0.18495706
54	0x3e601b87	0.21885501
55	0xbe5dd568	-0.2166344
56	0x3ea204f2	0.31644398
57	0xbe96fa87	-0.29488012
58	0x3d23e222	0.04001058
59	0x3cab315e	0.020897564
60	0x3ec55a9b	0.3854569
61	0xbc3f59d1	-0.011679129
62	0x3daf3288	0.0855456
63	0xbca7a801	-0.020465853
64	0xbf14e400	-0.581604
65	0x3d579af3	0.052638005
66	0xbe111fbb	-0.1417226
67	0x3e8f636b	0.28005537
68	0xbe6fbb39	-0.23411264
69	0x3dc2c48f	0.09510147
70	0xbe5190c3	-0.20465378
71	0x3ec41960	0.3830061
72	0xbe56439a	-0.20924225
73	0xbec03fce	-0.3754868
74	0x3e53b384	0.20673949
75	0x3f164253	0.5869495
76	0x3e886c4a	0.26645118
77	0x3eb1500b	0.3463138
78	0xbddcc683	-0.107800506
79	0x3e166ebe	0.14690682
80	0x3e6abc16	0.22923312
81	0x3e7a4a6c	0.24442452
82	0xbf03f0cc	-0.515393
83	0x3e599003	0.21246342
84	0x3e6b7a8b	0.22995965
85	0x3ed63c9f	0.41843125
86	0x3d274e33	0.04084606
87	0x3e742ed9	0.23845996
88	0x3f079add	0.5297068
89	0xbe5f76a3	-0.218226
90	0x3e5088ed	0.20364733
91	0x3e83c8f3	0.2573925
92	0x3efbdd16	0.49192113
93	0xbeef1d73	-0.46702155
94	0x3e598c7f	0.21245001
95	0x3dc11d53	0.09429421
96	0x3cc8effb	0.024528494
97	0x3eb3d425	0.3512279
98	0xbe9990a8	-0.29993176
99	0xbeb80702	-0.35942847
100	0xbde1351f	-0.1099646
101	0xbc1910b8	-0.009342365
102	0xbe68d191	-0.22736193
103	0x3e38c2e6	0.18043098
104	0x3b3af317	0.002852624
105	0x3d0472b1	0.03233594
106	0x3d33852f	0.043828186
107	0xbe9a5a1e	-0.3014688
108	0x3e846b07	0.25862905
109	0xbe2177a5	-0.15768297
110	0x3e12e20a	0.1434404
111	0x3e3af7d2	0.18258598
112	0x3e256415	0.1615146
113	0x3e150c99	0.14555587
114	0xbdc489bf	-0.095965855
115	0xbef7b898	-0.4838302
116	0x3decec3a	0.11568494
117	0xbdf88420	-0.12134576
118	0x3ed603dd	0.41799822
119	0x3e653153	0.22382097
120	0xbd3a5852	-0.045494385
121	0xbe831b0d	-0.25606576
122	0x3e86cd56	0.26328534
123	0x3e86495f	0.26227853
124	0xbc3674cb	-0.011136244
125	0x3e23293c	0.15933698
126	0x3e8f211c	0.27954948
127	0x3de9498c	0.11390981
128	0x3e48d781	0.19613458
129	0x3efcd06f	0.49377772
130	0x3ea9da82	0.3317452
131	0x3e79623b	0.24353878
132	0xbf52ad1c	-0.82295394
133	0x3c20f704	0.009824518
134	0xbe8c6624	-0.27421677
135	0xbd7cca6d	-0.061716486
136	0x3ec0027a	0.3750189
137	0xbe37f373	-0.17963962
138	0x3ee31ccf	0.44357917
139	0xbf106022	-0.5639669
140	0xbdacc8c8	-0.084367335
141	0xbe410935	-0.18851168
142	0x3cc0a8e0	0.023518026
143	0x3e502c71	0.20329453
144	0x3dbd1597	0.092326336
145	0xbec89a14	-0.39180052
146	0xbe3d636a	-0.18494955
147	0xbba33af5	-0.0049813935
148	0x3eb22303	0.34792337
149	0x3ecf03d1	0.404326
150	0x3ea44e92	0.32091194
151	0xbf20673d	-0.6265753
152	0x3de90231	0.11377371
153	0xbeb13626	-0.34611624
154	0x3e2986e7	0.16555367
155	0x3edf205e	0.43579382
156	0xbe9c9052	-0.30578858
157	0x3da9a300	0.08283043
158	0xbddee73e	-0.1088395
159	0x3ecc89ab	0.39948782
160	0x3b4221fc	0.0029622307
161	0x3e9a4a32	0.30134732
162	0xbdaf92cd	-0.08572922
163	0x3eebc2d3	0.46047077
164	0xbd070b1b	-0.032969575
165	0x3dde9c36	0.108696386
166	0x3c68317e	0.014171956
167	0xbe440d4c	-0.19145697
168	0x3d85dc02	0.06536104
169	0xbd6af693	-0.057364058
170	0x3e500f98	0.20318449
171	0x3d0f37e2	0.034965403
172	0x3e2fa035	0.17150958
173	0x3e1930a2	0.14959958
174	0xbe9342f1	-0.2876201
175	0x3ebb93e2	0.36636263
176	0x3e575c87	0.2103139
177	0x3d2fdd88	0.042935878
178	0xbe70e00b	-0.23522966
179	0x3ed4c13a	0.4155367
180	0x3e49791f	0.1967511
181	0x3f0f32a9	0.55936676
182	0x3e01059b	0.12599795
183	0xbe44fd35	-0.19237216
184	0x3ec359bf	0.38154408
185	0x3d740ba4	0.059581414
186	0x3e7d51be	0.24738213
187	0x3ef65825	0.48114124
188	0x3dc2e2cf	0.095159166
189	0xbf076ef4	-0.52903676
190	0x3dc84080	0.097779274
191	0x3d06c856	0.0329059
192	0x3e9b1dd2	0.3029619
193	0xbe88868e	-0.26665157
194	0xbf19d033	-0.6008331
195	0x3d663e78	0.05621192
196	0x3e711e99	0.23546828
197	0x3ed5d7e4	0.41766274
198	0x3e8a21f2	0.26979023
199	0xbd7460dd	-0.05966269
200	0x3d072220	0.03299153
201	0x3f15f6c1	0.5857964
202	0xbe91bef1	-0.2846599
203	0xbe18c2c3	-0.14918046
204	0x3e1a5a6f	0.1507356
205	0x3e8a846d	0.27054158
206	0x3d7d70fc	0.06187533
207	0x3ec78699	0.38969877
208	0x3e945c5b	0.28976712
209	0x3df14abd	0.11781833
210	0xbd7a0515	-0.061040003
211	0x3e1fce2d	0.15605994
212	0x3ddc796b	0.10765346
213	0xbe1b1794	-0.15145713
214	0x3e179a61	0.14804985
215	0x3ec785fa	0.38969404
216	0xbe0381ea	-0.12842527
217	0x3f0109ab	0.5040538
218	0x3dd9c644	0.10633519
219	0xbe9d71cd	-0.30750886
220	0xbe43e401	-0.19129945
221	0xbcd3e006	-0.025863659
222	0x3ed788f4	0.42096674
223	0xbec1dcc6	-0.3786375
224	0x3e1eed6c	0.15520257
225	0x3e1fe653	0.15615205
226	0x3eb8e484	0.36111844
227	0x3ea7c3f0	0.32766676
228	0xbc0643d6	-0.008194884
229	0x3e26dbd4	0.16294795
230	0x3eba3f6f	0.3637652
231	0xbed013fb	-0.40640244
232	0x3ed896f2	0.42302662
233	0x3ea53109	0.32263973
234	0x3dbccd2f	0.09218823
235	0xbdce9134	-0.10086289
236	0xbd5eda4f	-0.054407414
237	0x3e450090	0.19238496
238	0xbe3d6ca5	-0.18498476
239	0x3e88478d	0.2661709
240	0x3d8e32d0	0.069432855
241	0xbf1c08d4	-0.6095097
242	0xbf013055	-0.50464374
243	0x3d5a8719	0.053351495
244	0x3e1e0e62	0.15435174
245	0x3e848c3c	0.2588824
246	0x3e8739d0	0.26411295
247	0x3c865814	0.01639942
248	0xbc30656c	-0.010766368
249	0x3e6f084f	0.23343013
250	0x3c8d70a2	0.017265622
251	0x3d4de88b	0.0502706
252	0xbe274df9	-0.16338338
253	0xbe78543f	-0.24250887
254	0x3dfc4f4a	0.12319811
255	0xbeb11f76	-0.34594315
